net_parameters.pkl (torch_old, 757756 bytes, 32 tensors)

layer1.0.weight f4 [32, 1, 3, 3, 3]
0	0x3e38c41f	0.18043564
1	0x3de2969a	0.11063881
2	0xbe53e1d2	-0.20691612
3	0xbd067b15	-0.032832224
4	0x3db36d1b	0.087610446
5	0xbd86b3f8	-0.06577295
6	0xbdcd94d7	-0.100381546
7	0xbe0ebedb	-0.13939993
8	0xbed17139	-0.40906695
9	0xbe3c2448	-0.18373215
10	0xbd79fc2d	-0.06103151
11	0xbe63cc5a	-0.22245923
12	0x3cb66d73	0.022268986
13	0xbce95e3f	-0.028487323
14	0xbe1daacb	-0.15397184
15	0xbcadc607	-0.02121259
16	0x3e19c082	0.15014842
17	0xbe85ba67	-0.26118776
18	0x3dd44c48	0.10366112
19	0x3e875360	0.26430798
20	0x3e5c53aa	0.2151629
21	0x3e537aa2	0.2065225
22	0x3ef4c01d	0.4780282
23	0x3dd720e4	0.1050432
24	0x3f1587e6	0.5841049
25	0x3ec21bcb	0.3791183
26	0x3df34aa3	0.1187947
27	0x3edcb401	0.43106082
28	0x3e7326cf	0.23745273
29	0xbef4ed82	-0.47837454
30	0x3f11bda5	0.5693
31	0xbd9e49ed	-0.07728944
32	0xbedad4a7	-0.42740366
33	0x3eb278f1	0.34857896
34	0xbca715f6	-0.020396214
35	0xbf2f790d	-0.68544084
36	0x3f07e769	0.5308748
37	0x3e0e396b	0.1388909
38	0xbf0f2c47	-0.55926937
39	0x3f18e879	0.59729725
40	0x3d6f15c9	0.058370385
41	0xbf090a83	-0.53531665
42	0x3e56bb22	0.20969823
43	0x3d37575c	0.044761047
44	0xbf4414c8	-0.7659421
45	0x3e649b95	0.22324975
46	0x3e57175c	0.21005005
47	0xbc0ed860	-0.00871858
48	0x3db85eda	0.090024665
49	0x3e1176bd	0.14205451
50	0xbe054fbb	-0.13018696
51	0xbda1d969	-0.07902796
52	0x3cb43054	0.0219957
53	0xbe899f6d	-0.26879445
54	0xbd89f83a	-0.067367986
55	0xbe9c4523	-0.30521497
56	0xbece82b6	-0.403341
57	0x3e9f07f8	0.31060767
58	0x3ecbf217	0.39833137
59	0x3c1aa04c	0.009437632
60	0x3f009675	0.5022958
61	0x3eec4120	0.46143436
62	0x3e824bcf	0.25448462
63	0xbde57266	-0.112034604
64	0x3de99fb3	0.11407413
65	0xbe83ca13	-0.25740108
66	0x3ee40788	0.44536996
67	0x3f16c186	0.58889043
68	0x3ec66f96	0.38757008
69	0x3f174ab5	0.5909837
70	0x3f2bba78	0.67081404
71	0x3ef5deb3	0.4802147
72	0xbee2463c	-0.4419421
73	0xbee53cff	-0.447731
74	0xbecfe22d	-0.40602246
75	0x3d9321f5	0.07184211
76	0xbc8acf7a	-0.016944636
77	0xbf0030a4	-0.5007422
78	0x3e1990a0	0.14996576
79	0xbe5bb9b5	-0.2145756
80	0xbea594f9	-0.3234022
81	0xbd2b7dfb	-0.04186819
82	0x3eb60efd	0.3555831
83	0xbe9c0c49	-0.30478123
84	0xbdbd9432	-0.09256782
85	0x3ea14333	0.3149658
86	0xbee912c1	-0.4552212
87	0xbd547fa8	-0.051879555
88	0xbdd0c8d0	-0.10194552
89	0xbf05eb27	-0.5231194
90	0xbe112833	-0.14175491
91	0x3f57157d	0.84017164
92	0x3f0f20e2	0.5590955
93	0x3edf0368	0.43557286
94	0x3f8c6779	1.0969077
95	0x3e1036f4	0.14083463
96	0x3f431fbb	0.7622029
97	0x3f2e7db3	0.6816055
98	0xbe877b21	-0.26461127
99	0xbebc9126	-0.3682949
100	0xbd2eb732	-0.042655177
101	0xbbea782d	-0.0071554394
102	0xbec1fb5e	-0.3788709
103	0xbe0b2b75	-0.13590796
104	0xbe35843c	-0.17726225
105	0x3c35b54b	0.011090587
106	0xbee460db	-0.44605145
107	0xbe81b22a	-0.2533124
108	0xbd1b0efb	-0.037856083
109	0xbc9dc9b3	-0.019261217
110	0x3efc93c6	0.49331492
111	0xbe528bf4	-0.205612
112	0x3dda4416	0.106575176
113	0x3e169c8b	0.14708154
114	0xbed8e215	-0.42359987
115	0x39ae6bb5	0.00033268114
116	0xbe57a350	-0.21058393
117	0x3e8a9b28	0.270715
118	0x3e9fad4b	0.311869
119	0x3e91d43d	0.28482237
120	0x3e959bc5	0.29220405
121	0x3ed9170a	0.4240039
122	0x3ed5b802	0.4174195
123	0xbe8399ff	-0.25703427
124	0xbda64f2d	-0.0812057
125	0x3e8c5cea	0.27414638
126	0x3d933577	0.07187932
127	0xbf03912d	-0.51393396
128	0xbeeaa4a2	-0.4582873
129	0xbe291f45	-0.16515835
130	0xbeae008f	-0.339848
131	0xbeff7050	-0.49890375
132	0xbd48f5a1	-0.049062375
133	0xbeb42918	-0.35187602
134	0xbef8335a	-0.48476678
135	0x3e3480b7	0.17627226
136	0xbea6d361	-0.32583144
137	0xbe328252	-0.17432526
138	0x3f3f6d25	0.74775916
139	0x3eef5f64	0.46752465
140	0x3e1c8200	0.15283966
141	0x3ef689af	0.4815192
142	0x3e1f8f51	0.15582015
143	0xbe86297c	-0.26203525
144	0x3f08da44	0.53458047
145	0xbd206dfb	-0.039167386
146	0x3e4c920b	0.19977586
147	0x3e3738ac	0.17892712
148	0xbdd4aa18	-0.10384005
149	0x3e3bb5a8	0.18331015
150	0x3cf9b24d	0.030480528
151	0xbe45f535	-0.1933182
152	0x3c34c1ed	0.011032564
153	0x3f1182de	0.5684031
154	0x3e972b0d	0.29525033
155	0x3f4bc74a	0.79600966
156	0x3e42e8af	0.19034074
157	0x3e26ffd5	0.1630853
158	0x3ec62b7b	0.38705048
159	0xbe714150	-0.23560071
160	0xbedf5b68	-0.43624425
161	0xbe5acc6f	-0.21367048
162	0xbdfde5f3	-0.12397375
163	0xbe252eaa	-0.16131082
164	0xbeb9f15d	-0.36316958
165	0xbe40b4c9	-0.18818964
166	0xbeb95638	-0.36198592
167	0xbdaac21f	-0.08337807
168	0x3b2dfb51	0.0026547501
169	0xbeb53124	-0.35389054
170	0xbcf587cd	-0.029971981
171	0x3f0f95d4	0.56087995
172	0x3f07e16d	0.5307835
173	0x3e9cdc20	0.30636692
174	0x3e43c115	0.19116624
175	0x3ded2359	0.11579008
176	0x3eaade97	0.33372948
177	0xbe451b1d	-0.19248624
178	0xbe812f45	-0.25231376
179	0xbda19889	-0.07890422
180	0x3f0539e9	0.5204149
181	0x3f46b456	0.7761892
182	0xbceb1482	-0.028696302
183	0x3eb37bed	0.35055485
184	0x3f331461	0.6995297
185	0x3db388c4	0.0876632
186	0xbd8b20d6	-0.06793372
187	0xbe64070a	-0.2226831
188	0xbe4b640a	-0.1986238
189	0xbebb5f85	-0.36596313
190	0xbd732031	-0.059356872
191	0xbf47ac54	-0.77997327
192	0x3e5ecd42	0.21757987
193	0x3eb61531	0.35563043
194	0xbf106557	-0.5640463
195	0xbd93c4a0	-0.072152376
196	0x3e462b48	0.19352448
197	0xbe843bd0	-0.25826883
198	0xbe16cf5e	-0.14727542
199	0x3d08b86d	0.033379007
200	0xbf064a6f	-0.52457327
201	0x3e9f8306	0.3115465
202	0x3ef09928	0.4699185
203	0xbd8760ba	-0.06610246
204	0x3e8e8330	0.27834463
205	0x3ed7b918	0.42133403
206	0xbccd6532	-0.025072668
207	0xbe006f55	-0.1254247
208	0x3d2035d7	0.039113846
209	0xbc776c3d	-0.01510149
210	0x3dea696c	0.11445889
211	0x3ecd77d4	0.40130484
212	0x3ec5c13a	0.38623983
213	0x3d8af090	0.06784165
214	0x3e68c045	0.22729595
215	0x3e7302e6	0.23731574
216	0x3e709458	0.23494089
217	0x3ede95bb	0.4347361
218	0x3e415e20	0.18883562
219	0x3e949be9	0.290252
220	0x3e99b16c	0.30018175
221	0xbdae1d7a	-0.08501716
222	0xbdbf5361	-0.09342075
223	0xbe196ddc	-0.14983314
224	0xbf40833f	-0.75200266
225	0x3ced5e5c	0.028975658
226	0x3e4473c2	0.19184783
227	0xbd74102f	-0.059585746
228	0x3e8853fb	0.26626572
229	0x3d9bd683	0.07609274
230	0xbf034df6	-0.51290834
231	0x3d91e8b8	0.07124466
232	0xbef4376a	-0.47698528
233	0xbf855b94	-1.0418572
234	0x3cb1751d	0.02166229
235	0x3d26c80e	0.04071813
236	0xbcca57b3	-0.024700021
237	0x3e987ae7	0.29781267
238	0x3ce95e94	0.028487481
239	0x3e75b8d2	0.23996285
240	0x3caca962	0.021076862
241	0x3e28c63d	0.16481872
242	0xbd52319f	-0.051316854
243	0x3f1e70d0	0.6189089
244	0x3df2002c	0.11816439
245	0xbd2414e9	-0.040059004
246	0xbe47a6c7	-0.19497214
247	0x3ed75c5c	0.42062652
248	0x3b05b4c6	0.0020401939
249	0xbe9f7919	-0.31147078
250	0x3e69b8bc	0.22824377
251	0x3e9b66e2	0.3035193
252	0x3e7c44ad	0.24635573
253	0x3e440667	0.19143067
254	0xbe0d522d	-0.13800879
255	0xbe426ca2	-0.18986753

layer1.0.bias f4 [32]
0	0x3ed5c895	0.41754594
1	0x3db57d70	0.08861816
2	0x3e45a993	0.19302969
3	0xbeb97066	-0.36218566
4	0xbe038c51	-0.12846495
5	0xbe9fdcc2	-0.31223112
6	0xbf034900	-0.51283264
7	0xbdc4f4ff	-0.09617042
8	0x3e0c3b75	0.13694556
9	0xbd0848e6	-0.033272646
10	0x3d00263c	0.031286463
11	0x3a8eefa6	0.0010905161
12	0x3db1ae1e	0.08675788
13	0x3c1d4771	0.0095995525
14	0x3db6b29c	0.08920786
15	0x3d8f4d83	0.06997206
16	0xbed179f8	-0.40913367
17	0xbdbc447d	-0.091927506
18	0x3d0652db	0.03279386
19	0x3eb6406e	0.3559603
20	0x3db9e7d1	0.090774186
21	0x3e6bd671	0.23031022
22	0xbe93be2d	-0.2885603
23	0x3ddad5f3	0.10685339
24	0x3deba50f	0.11506092
25	0xbcbbb269	-0.022912221
26	0x3e297a8f	0.16550659
27	0x3d302c3c	0.043010935
28	0x3e685457	0.22688423
29	0x3e18fba0	0.14939737
30	0xba671de3	-0.0008816404
31	0x3e79c585	0.24391754

layer1.2.weight f4 [32]
0	0x3f3351a4	0.7004645
1	0x3fafecf0	1.3744183
2	0x3f94bbc9	1.1619807
3	0x3fe54255	1.7910868
4	0x3e70cd23	0.23515753
5	0x3f777bb2	0.9667312
6	0x3f7736b0	0.9656782
7	0x3ef67fe4	0.48144448
8	0x3f0633c0	0.52422714
9	0x3f392929	0.7232843
10	0x3ebd3ca2	0.36960322
11	0x400f7d7e	2.2420344
12	0x3ea008fb	0.31256852
13	0x3e186cf2	0.1488531
14	0x3f3186f3	0.6934654
15	0x3eb526aa	0.3538106
16	0x3f4c4c08	0.79803514
17	0x3ec3f890	0.38275576
18	0x3f38c965	0.72182304
19	0x3f881a79	1.0633079
20	0x3f91f6c3	1.1403431
21	0x3f11eded	0.5700367
22	0x3fb851c9	1.4399959
23	0x3fbe9908	1.4890451
24	0x3fdc84e4	1.7228055
25	0x3f1bc9df	0.60854906
26	0x3fab61ff	1.3389281
27	0x3f847a89	1.0349895
28	0x3f0ea97c	0.5572736
29	0x3fe75e53	1.807566
30	0x3fc6c27c	1.5528102
31	0x3ee27b55	0.4423472

layer1.2.bias f4 [32]
0	0xbd0c884f	-0.03430968
1	0x3e765897	0.24057232
2	0x3eac836c	0.33694017
3	0x3e7d6829	0.24746765
4	0x3c0bd2bf	0.0085341325
5	0x3ee9dab1	0.4567466
6	0x3e894fd7	0.26818725
7	0x3dd090a1	0.10183836
8	0x3dcee25b	0.10101768
9	0xbe5bb5b7	-0.21456037
10	0x3e84fc88	0.25973916
11	0x3f2870e3	0.6579725
12	0xbd901985	-0.070361175
13	0xbde80410	-0.113289
14	0xbdf030ce	-0.11728059
15	0xbe5ae99b	-0.21378176
16	0x3bf45360	0.007456228
17	0xbda888d4	-0.08229223
18	0x3e5e14fa	0.2168769
19	0x3d4fbd7c	0.050717816
20	0x3e5bb941	0.21457388
21	0x3e652141	0.22375967
22	0x3e514d0a	0.20439544
23	0x3eadfc5a	0.3398159
24	0x3eeaeece	0.4588532
25	0x3e5cb877	0.21554743
26	0x3e47c173	0.19507389
27	0x3ea93ec9	0.33055714
28	0x3e624f1a	0.22100487
29	0x3ea046db	0.31304058
30	0x3f199ba6	0.60003126
31	0xbe15cdaf	-0.14629243

layer1.2.running_mean f4 [32]
0	0x3e301b46	0.17197904
1	0x3e8472c1	0.258688
2	0x3d659deb	0.056058805
3	0xbc05e66c	-0.008172613
4	0x3eed9443	0.46402177
5	0xbb7221f1	-0.00369465
6	0xbc358d69	-0.011081078
7	0x3c9e0434	0.019289114
8	0x3ecfdc82	0.40597922
9	0x3c2d349d	0.010571626
10	0x3f147c51	0.5800219
11	0x3dc57a63	0.09642484
12	0x3cc22070	0.023697108
13	0x3db5d45f	0.08878397
14	0x3f122b99	0.57097775
15	0x3f983f9a	1.189441
16	0x3c28be33	0.010299253
17	0x3eca45b9	0.3950632
18	0x3dde501f	0.10855126
19	0x3ee40582	0.44535452
20	0x3e267e31	0.16259076
21	0x3d29058f	0.041265067
22	0x3b5b2704	0.0033440003
23	0x3e1bbf50	0.15209699
24	0x3e1a92ea	0.15095106
25	0x3d3be794	0.045875147
26	0x3e9b02ef	0.30275676
27	0x3dc6efd3	0.097137116
28	0x3d2334d3	0.0398453
29	0x3e9704de	0.294959
30	0x3cd7289b	0.02626448
31	0x3f91482e	1.1350152

layer1.2.running_var f4 [32]
0	0x3de45822	0.111496225
1	0x3e2e2465	0.17006071
2	0x3d213364	0.03935565
3	0x3b0c3e0b	0.0021399285
4	0x3e26ee40	0.16301823
5	0x3c4481c0	0.011993825
6	0x3ad2ae36	0.0016073647
7	0x3c21e513	0.009881276
8	0x3de35845	0.111008205
9	0x3c64cdfb	0.013965125
10	0x3e25f974	0.1620844
11	0x3df86f09	0.12130553
12	0x3d015e8d	0.03158431
13	0x3dc91df7	0.098201685
14	0x3e4d8340	0.20069599
15	0x3f4dab66	0.8033966
16	0x3c7403cf	0.014893486
17	0x3e3105cb	0.17287366
18	0x3de8735b	0.11350127
19	0x3e15aed4	0.14617473
20	0x3e41ce41	0.18926336
21	0x3d7a3a7e	0.06109094
22	0x3bad398f	0.0052864025
23	0x3d861cef	0.065484874
24	0x3d3611ae	0.044450454
25	0x3d0dd704	0.034628883
26	0x3e302bc8	0.17204201
27	0x3de69f94	0.11260906
28	0x3d53e9d3	0.051736664
29	0x3e04dc98	0.12974775
30	0x3c4fb797	0.012678049
31	0x3f2789ae	0.6544446

layer2.0.weight f4 [64, 32, 3, 3, 3]
0	0xbdd7f284	-0.10544303
1	0x3d01b78f	0.031669196
2	0x3e2ba034	0.16760331
3	0xbd8e7eea	-0.06957801
4	0x3d04f853	0.032463383
5	0x3e443e95	0.19164498
6	0xbde393e9	-0.11112196
7	0x3d7ab8ef	0.061211523
8	0x3e5efda6	0.21776447
9	0xbe46e75a	-0.19424191
10	0xbdb9e206	-0.09076314
11	0x3cd706ed	0.02624842
12	0xbe75ede6	-0.24016532
13	0xbdc449a4	-0.09584358
14	0x3d794678	0.06085822
15	0xbe772423	-0.24134879
16	0xbda3bf58	-0.0799548
17	0x3c5d4b78	0.013506763
18	0xbdb01fb0	-0.08599794
19	0x3cdff8d6	0.027340334
20	0x3e08477e	0.13308522
21	0xbdc64b32	-0.09682311
22	0xbc85fa7f	-0.016354797
23	0x3d6c0267	0.05761948
24	0xbd851b00	-0.064992905
25	0xbcc3483b	-0.023838153
26	0x3c0c30de	0.008556573
27	0xbbe63a74	-0.007026011
28	0x3ce99d86	0.028517496
29	0x3d4bf509	0.04979423
30	0xbd6cba09	-0.057794604
31	0x3b93f645	0.0045154416
32	0x3bbbb247	0.0057280394
33	0xbe354795	-0.17703088
34	0xbc8fcfe5	-0.017555187
35	0xbcb7c390	-0.022432119
36	0xbd38fdb0	-0.04516381
37	0xbdb72ada	-0.0894372
38	0xbdd893a3	-0.105750345
39	0xbe3aa57e	-0.18227193
40	0xbe2fd9d9	-0.17172946
41	0xbe86af27	-0.26305506
42	0xbea42c21	-0.32064918
43	0xbebc569d	-0.3678483
44	0xbee6289b	-0.44952855
45	0xbdcd253f	-0.1001687
46	0xbdc42f1c	-0.09579298
47	0xbe0ca121	-0.13733341
48	0xbe649cd7	-0.22325455
49	0xbe486a38	-0.19571769
50	0xbeaef1db	-0.34168896
51	0xbecac24a	-0.39601356
52	0xbee87445	-0.45401207
53	0xbf3caf55	-0.73705035
54	0x3e410f57	0.18853508
55	0xbd141de8	-0.036161333
56	0xbdcdde2b	-0.10052141
57	0xbd990271	-0.07471169
58	0xbe3010fc	-0.17193979
59	0xbe5428ab	-0.20718639
60	0xbe880e12	-0.26573235
61	0xbe998683	-0.29985437
62	0xbe227ee4	-0.15868717
63	0x3e090198	0.13379514
64	0x3d980c3b	0.07424208
65	0x3dcad019	0.09902973
66	0x3ccce035	0.025009254
67	0xbd96996e	-0.07353483
68	0xbd1f04b0	-0.03882283
69	0xbe80281b	-0.25030598
70	0xbe0cdbbf	-0.13755701
71	0xbcec4af7	-0.02884434
72	0x3dc88741	0.09791423
73	0x3e5e3886	0.2170125
74	0x3ebe376a	0.37151653
75	0xbcbb5afa	-0.02287053
76	0x3d48cd4e	0.04902392
77	0x3e0ed1cb	0.13947217
78	0xbe7ee5b0	-0.24892306
79	0xbd9432b3	-0.072362326
80	0x3dc2dedf	0.095151655
81	0xbd4c76a1	-0.04991782
82	0xbda97738	-0.08274692
83	0xbebf1cb4	-0.37326586
84	0x3ea6511c	0.32483757
85	0x3d77c315	0.06048878
86	0xbe95bcc8	-0.2924559
87	0x3e7439ac	0.23850125
88	0xbcad52f4	-0.02115772
89	0xbe1dfce5	-0.15428503
90	0xbee8c265	-0.4546081
91	0x3db96b51	0.09053672
92	0x3e185122	0.148747
93	0xbd2c9919	-0.042138193
94	0x3edefd9b	0.4355286
95	0x3e1a3661	0.15059806
96	0xbdbc8365	-0.09204749
97	0x3c55da29	0.013052502
98	0xbe809a6f	-0.25117823
99	0x3dc5f795	0.09666363
100	0x3f0583a3	0.52153987
101	0x3f39d6c8	0.72593355
102	0xbd9c38db	-0.07628032
103	0x3edee885	0.43536773
104	0x3ef06a60	0.46956158
105	0xbe7bbcca	-0.24583736
106	0xbd1c6bce	-0.038188748
107	0xbe91f7d3	-0.28509387
108	0xbd93b7c2	-0.072127834
109	0xbdc7a716	-0.09748666
110	0xbddaa622	-0.106762186
111	0xbd83f304	-0.06442836
112	0xbe13d683	-0.14437298
113	0xbdd31b87	-0.10307985
114	0xbb759e35	-0.0037478332
115	0xbe277dc3	-0.16356568
116	0xbe2f770c	-0.17135257
117	0xbd94d2db	-0.0726678
118	0xbd2ab9d6	-0.041681133
119	0xbd8e0769	-0.06935007
120	0xbd9f7cba	-0.077874616
121	0xbdae645d	-0.085152365
122	0xbd740f68	-0.059585005
123	0xbcdf8d21	-0.027288975
124	0xbdee6947	-0.11641174
125	0xbe06b1f0	-0.13153815
126	0xba824a5b	-0.0009940373
127	0xbcd9c42a	-0.026582796
128	0xbd8c7025	-0.06857327
129	0xbcad086d	-0.021122182
130	0xbd1c16a5	-0.038107533
131	0xbdaac724	-0.08338764
132	0x3bf72546	0.007542285
133	0xbdea53b2	-0.11441745
134	0xbdcb269a	-0.09919472
135	0xbebc98ef	-0.3683543
136	0xbe9bcbfc	-0.30429065
137	0xbe6a4a90	-0.22880006
138	0xbe78214b	-0.2423145
139	0xbe0ca961	-0.13736488
140	0x3afdb64a	0.0019356695
141	0xbea127c3	-0.31475648
142	0xbe4e7772	-0.20162752
143	0xbd89e84e	-0.06733762
144	0xbe87f3e8	-0.26553273
145	0xbe162ec2	-0.14666274
146	0x3a052264	0.0005078672
147	0xbe379a15	-0.17929871
148	0xbb8bfc83	-0.004272045
149	0x3e3135a9	0.17305626
150	0xbe252c85	-0.16130264
151	0xbd2a0b7d	-0.041514862
152	0x3d15512f	0.036454376
153	0xbee9c702	-0.45659643
154	0xbe8c5f3b	-0.27416405
155	0xbda5f25b	-0.08102866
156	0xbeed2ccd	-0.46323243
157	0xbe986d25	-0.2977077
158	0xbdac7d60	-0.08422351
159	0xbec33a95	-0.38130632
160	0xbeb274c9	-0.34854725
161	0xbe4e2b01	-0.20133592
162	0xbe47c223	-0.19507651
163	0xbdaa6148	-0.08319336
164	0x3e12e161	0.14343788
165	0xbec38630	-0.38188314
166	0x3d377a65	0.04479446
167	0x3ebcbbd8	0.36862063
168	0x3d6ee1d6	0.058320843
169	0x3ecaa2af	0.39577243
170	0x3f0712e6	0.5276321
171	0xbe37515f	-0.17902134
172	0xbd8c20e0	-0.06842208
173	0x3e446a6f	0.19181226
174	0xbed4abb1	-0.4153724
175	0xbe775b3c	-0.24155897
176	0x3e183083	0.14862256
177	0xbee484ab	-0.44632468
178	0xbe65b6aa	-0.22432962
179	0x3d4046bd	0.04694246
180	0xbddbd0c4	-0.10733178
181	0x3dca973a	0.098921254
182	0x3e60420e	0.21900198
183	0xbe25f2d3	-0.16205911
184	0xbe570a06	-0.20999917
185	0xbe81373f	-0.25237462
186	0xbe838bff	-0.25692746
187	0xbed94852	-0.4243799
188	0xbf246df8	-0.642303
189	0xbdd05d6f	-0.10174071
190	0xbd0a9ab8	-0.033838958
191	0xbdcde2db	-0.10053035
192	0xbe2f1359	-0.17097224
193	0xbd6de1c2	-0.058076628
194	0xbdd72d23	-0.10506656
195	0xbe31b18c	-0.17352885
196	0xbe085fcc	-0.13317794
197	0xbe0f42b0	-0.13990283
198	0xbe255243	-0.16144662
199	0xbdb71885	-0.089402236
200	0x3c12dc14	0.0089636035
201	0xbe25db31	-0.16196896
202	0xbe0b5c99	-0.13609542
203	0xbd86293b	-0.06550833
204	0xbe3b3204	-0.18280798
205	0xbe043507	-0.12910853
206	0xbdd5d5c3	-0.104411624
207	0xbe159ef3	-0.14611416
208	0xbd812228	-0.06305343
209	0xbc7a8ebf	-0.015292822
210	0xbe70bffb	-0.23510735
211	0xbe19c042	-0.15014747
212	0xbdeebb8e	-0.11656867
213	0xbe4fe126	-0.20300731
214	0xbdef7163	-0.11691549
215	0xbe2abf1e	-0.16674468
216	0xbd1110ff	-0.0354166
217	0x3d62f984	0.055413738
218	0x3d7fba7f	0.062433716
219	0xbccf4140	-0.025299668
220	0x3d882705	0.066480674
221	0x3dddb549	0.10825593
222	0xbc848746	-0.016177785
223	0x3dccf49e	0.100075945
224	0x3e654982	0.22391322
225	0xbcdb0c2c	-0.026739202
226	0xbd024aed	-0.031809736
227	0xbcaa4072	-0.020782683
228	0xbdbbb94d	-0.09166203
229	0xbd7c2951	-0.06156284
230	0xbd7afb26	-0.06127467
231	0xbdf9006b	-0.12158283
232	0xbd96eb4c	-0.07369098
233	0xbdce4eba	-0.1007361
234	0xbcaf000c	-0.021362327
235	0x3c2238c4	0.009901229
236	0xbd9728de	-0.07380842
237	0xbde12ec8	-0.10995251
238	0xbdaabb40	-0.08336496
239	0xbe226e22	-0.15862325
240	0xbe5f2050	-0.2178967
241	0xbe728a54	-0.2368558
242	0xbecaecec	-0.39633882
243	0xbd975976	-0.0739011
244	0x3c73d417	0.014882109
245	0x3da44118	0.08020228
246	0xbe01aeee	-0.12664387
247	0xbca344d9	-0.01993029
248	0x3d86ac41	0.065758236
249	0xbd9d3f56	-0.07678096
250	0xbcd2e863	-0.025745576
251	0x3df13c92	0.11779131
252	0xbc235a0a	-0.009970197
253	0xbc4cfc27	-0.01251129
254	0x3d588f22	0.052870877
255	0xbd34fd19	-0.044186685

layer2.0.bias f4 [64]
0	0xbe8de18b	-0.27711138
1	0xbe00406c	-0.12524575
2	0xbea34192	-0.31885964
3	0xbbf3e411	-0.007442959
4	0xbe1d0dfc	-0.15337366
5	0x3d8802eb	0.066411816
6	0xbecfd4f8	-0.4059217
7	0x3e4e9aa1	0.20176174
8	0x3eaf920a	0.34291106
9	0xbeb17c25	-0.34665027
10	0xbe9151c0	-0.28382683
11	0xbf39152a	-0.7229792
12	0xbe1a4c15	-0.15068085
13	0xbf1ec38a	-0.6201712
14	0xbcc32aba	-0.023824085
15	0xbd2e4609	-0.04254726
16	0xbe2a5dd0	-0.16637349
17	0xbe8a0b82	-0.26961905
18	0x3e84dc7d	0.2594947
19	0xbd8f1203	-0.06985857
20	0xbe01db57	-0.12681328
21	0xbe84b0ef	-0.2591624
22	0x3dce4709	0.10072143
23	0xbe7ae5a0	-0.24501657
24	0x3d89a04d	0.06720028
25	0xbec8eb1a	-0.39241868
26	0xbef823e2	-0.48464876
27	0xbdb3c68d	-0.08778105
28	0xbeba3ead	-0.36375943
29	0xbed4d981	-0.41572192
30	0xbe852be3	-0.26010045
31	0x3dc465b7	0.09589713
32	0xbe8e1226	-0.2774822
33	0xbe35815c	-0.17725128
34	0x3c114fdf	0.00886914
35	0x3d0350d5	0.03205951
36	0xbe928758	-0.28618884
37	0x3c973891	0.01845959
38	0xbdb857f6	-0.09001152
39	0xbe90b5fa	-0.28263837
40	0xbe0ef159	-0.13959254
41	0xbec33535	-0.3812653
42	0xbe6e0e68	-0.23247683
43	0x3d51a897	0.05118617
44	0xbe15df4f	-0.14635967
45	0x3d68186c	0.056663916
46	0xbe55164d	-0.20809288
47	0xbef46f30	-0.4774108
48	0x3dce98a3	0.10087707
49	0x3d352d20	0.044232488
50	0xbe4981be	-0.19678399
51	0xbddd988c	-0.10820112
52	0xbe59f61e	-0.21285293
53	0xbea45397	-0.32095024
54	0xbf0da9a4	-0.55336976
55	0xbebdf08e	-0.3709759
56	0x3e8469b1	0.25861886
57	0xbe90f947	-0.28315184
58	0xbea01370	-0.3126483
59	0xbda70a54	-0.08156267
60	0xbe2e5c95	-0.17027505
61	0x3ca2bb15	0.019864598
62	0xbf1a3dff	-0.6025085
63	0xbe4c4dd9	-0.19951572

layer2.2.weight f4 [64]
0	0x3fc2ad95	1.5209223
1	0x3fa3927d	1.277908
2	0x3f818f88	1.0121927
3	0x3f178e5b	0.5920159
4	0x3fb0b878	1.3806295
5	0x3f56b740	0.8387337
6	0x3fba0449	1.4532558
7	0x3f8cf8bd	1.1013409
8	0x3f43829b	0.76371163
9	0x3f214c0d	0.6300667
10	0x3f12cb67	0.5734162
11	0x3ff2fc25	1.8983198
12	0x3f25dc14	0.6478894
13	0x3f996677	1.1984395
14	0x3f7386ed	0.95127755
15	0x3fa00981	1.25029
16	0x3f3debf6	0.7418817
17	0x3f36f4d7	0.71467346
18	0x3fa88c9d	1.3167912
19	0x3f864ee3	1.0492824
20	0x3f83480b	1.0256361
21	0x3fa9c781	1.3264009
22	0x3f26e583	0.6519396
23	0x3f181e0d	0.59420854
24	0x3f7a394c	0.9774368
25	0x3f6c4393	0.9229061
26	0x3f93fe91	1.1562063
27	0x3f964075	1.1738421
28	0x3f502d8e	0.8131951
29	0x3f5fe85e	0.8746394
30	0x3f90ced2	1.1313117
31	0x3f6d58be	0.92713535
32	0x3fb45363	1.4087948
33	0x3fa2d4ee	1.2721231
34	0x3f7dd00b	0.99145573
35	0x3f626591	0.8843623
36	0x3fefed73	1.8744339
37	0x3fbdfa68	1.4842043
38	0x3f4ce5d0	0.80038166
39	0x3f8a60ca	1.0810788
40	0x3f62f528	0.8865533
41	0x3f2d1261	0.6760617
42	0x3f16b14d	0.5886429
43	0x3f6629d9	0.89907604
44	0x3f2c5c64	0.67328477
45	0x3f0f840b	0.56060857
46	0x3eff648c	0.498814
47	0x3f8f1593	1.1178459
48	0x3f6a224c	0.9145858
49	0x3f9e7a83	1.2381138
50	0x3fac6407	1.3468026
51	0x3f8fa8aa	1.1223347
52	0x3f2b208f	0.66846555
53	0x3fbf0327	1.4922837
54	0x3f4626f6	0.774032
55	0x3f42b80b	0.7606208
56	0x3f69e39c	0.9136293
57	0x3f7d5be0	0.98968315
58	0x3f3b528c	0.7317283
59	0x3f27ba69	0.65518814
60	0x3f94a704	1.1613469
61	0x3f684f7c	0.90746284
62	0x3fd8bc22	1.6932414
63	0x3f43cb6d	0.7648228

layer2.2.bias f4 [64]
0	0x3edec2ac	0.43507898
1	0x3e5a441d	0.21315046
2	0x3c843099	0.016136454
3	0x3e5aa55a	0.21352139
4	0x3eaf41c1	0.34229854
5	0xbeb3fb1f	-0.35152528
6	0x3d43d030	0.047805965
7	0x3ec061df	0.3757467
8	0xbd33042b	-0.043705147
9	0x3e0fac06	0.14030465
10	0xbe7fa15b	-0.24963896
11	0x3eb91a78	0.36153007
12	0xbec4cb9e	-0.38436598
13	0xbdd30dfa	-0.103054
14	0x3c98e5e6	0.018664312
15	0xbdf644af	-0.12024819
16	0x3ccc8193	0.02496413
17	0x3da2d076	0.07949917
18	0x3e31a8ad	0.17349501
19	0xbd957e3c	-0.07299468
20	0xbd1c54e5	-0.0381669
21	0xbd650352	-0.05591137
22	0xbe8a0c63	-0.26962575
23	0xbe805bf8	-0.25070167
24	0x3e76ed14	0.24113876
25	0x3e07abc3	0.13249116
26	0x3e6533de	0.22383067
27	0x3e1633c7	0.14668189
28	0x3dfb4b99	0.122702785
29	0x3e59f9fc	0.21286768
30	0x3d8e9a3e	0.06963013
31	0x3e96027a	0.29298764
32	0x3f00aca9	0.5026346
33	0x3ea704f9	0.3262098
34	0xbec7dc97	-0.39035484
35	0xbd092b59	-0.033488605
36	0x3e8060f1	0.2507396
37	0x3daec7c8	0.08534199
38	0x3c991bad	0.018689955
39	0xbd066f53	-0.03282101
40	0xbf3d8536	-0.7403139
41	0xbe9537c6	-0.29144114
42	0x3d4ade90	0.04952866
43	0xbf0280fd	-0.5097807
44	0xbe39311d	-0.18085141
45	0x3c72c240	0.014816821
46	0x3e9cabfd	0.30599967
47	0x3e3df802	0.18551639
48	0xbe2896b2	-0.16463736
49	0xbf06bea9	-0.52634674
50	0x3ef7664e	0.4832024
51	0x3ea94cd0	0.33066416
52	0x3e0c828b	0.13721673
53	0x3e7b0c02	0.245163
54	0x3d67ae39	0.056562636
55	0x3dfe42f4	0.12415114
56	0x3d948b24	0.072531015
57	0xbecccc78	-0.39999747
58	0x3ec49e3d	0.38401976
59	0xbdbf58b9	-0.093430944
60	0x3d9f6739	0.0778336
61	0xbda184f9	-0.07886691
62	0x3ef66190	0.4812131
63	0x3e0b1cf8	0.1358527

layer2.2.running_mean f4 [64]
0	0x3f4fdfa5	0.8120063
1	0x3f5507c1	0.83214957
2	0xbda63ab8	-0.081166685
3	0x3f090b91	0.53533274
4	0x3f5a3459	0.85236126
5	0x3fce96b1	1.6139737
6	0x408103bb	4.0317054
7	0x40dd4dc3	6.9157424
8	0x40f7ceff	7.744018
9	0x40957869	4.6709485
10	0x3f8d32ff	1.1031188
11	0x3edaffa0	0.4277315
12	0x408d7f45	4.421786
13	0x3e6d1ceb	0.23155563
14	0x4023a24f	2.5567815
15	0x3fc0acbf	1.5052718
16	0x3f4462ab	0.76713055
17	0x3fff280b	1.9934095
18	0x406be4d5	3.6858418
19	0x3f81c682	1.0138705
20	0x3f78fa16	0.972566
21	0x3dec8053	0.115479134
22	0x4010b268	2.260889
23	0x3f6a62e0	0.9155712
24	0x40295cdc	2.6462927
25	0x3f2aa620	0.66659737
26	0x3fd08c71	1.6292859
27	0x40842a4f	4.1301646
28	0x403ee900	2.9829712
29	0x3fb8db86	1.4441993
30	0x3f93a1fd	1.153381
31	0x404d8757	3.2113855
32	0x3ebab318	0.36464763
33	0x3f6e97fa	0.9320065
34	0x3fb6503e	1.4243238
35	0x405d1f33	3.4550292
36	0x3f05d729	0.52281433
37	0x3ff1f97c	1.8904262
38	0x403fba3c	2.9957418
39	0x3f0cc66e	0.5499028
40	0x4035ad13	2.8386886
41	0x40039f0c	2.0565825
42	0x3fbaddcb	1.4598936
43	0x4010c898	2.2622433
44	0x402a8d19	2.664862
45	0x40567f03	3.3515022
46	0x4049cd86	3.1531692
47	0x3ef22a63	0.47297964
48	0x406f178c	3.7358122
49	0x3f5d0880	0.86341095
50	0x3f161e30	0.5863981
51	0x3f44d17b	0.7688214
52	0x3fb1dd68	1.3895693
53	0x400c361b	2.1908023
54	0xbd966f35	-0.0734543
55	0x3f980518	1.1876554
56	0x40c2d1de	6.0881186
57	0x3fc3a2b2	1.5284026
58	0x40787d9e	3.882667
59	0x400a83b4	2.1642885
60	0x3ff3e973	1.9055618
61	0x4065c76d	3.590297
62	0x3f494c11	0.78631693
63	0xbd42ea90	-0.047586977

layer2.2.running_var f4 [64]
0	0x416d2057	14.820395
1	0x41a8f622	21.120182
2	0x3f1c9069	0.6115785
3	0x419c80d7	19.56291
4	0x41614a57	14.080649
5	0x411cb9ca	9.795359
6	0x42832b1d	65.584206
7	0x42d7fd1f	107.99438
8	0x428eea24	71.457306
9	0x42579244	53.892838
10	0x41a1cf13	20.22611
11	0x4121beec	10.109112
12	0x42b24172	89.12782
13	0x40b78fce	5.7363043
14	0x4184d369	16.603228
15	0x419ec352	19.845371
16	0x4132bf81	11.171754
17	0x421967f9	38.351536
18	0x421e417f	39.56396
19	0x416e316d	14.887067
20	0x40f07420	7.5141754
21	0x407dc919	3.965399
22	0x41cd87dc	25.691338
23	0x412cee37	10.808158
24	0x4208cdd8	34.20102
25	0x4180b1c8	16.086807
26	0x41934e1b	18.413137
27	0x421af837	38.742397
28	0x4296c223	75.37917
29	0x427ef6a9	63.74088
30	0x414e8196	12.906637
31	0x4229f13e	42.485588
32	0x41045590	8.270889
33	0x41a5b9c2	20.715702
34	0x41af3e5b	21.905447
35	0x41af0cd9	21.881273
36	0x415c0b12	13.752703
37	0x418c023b	17.50109
38	0x423ca30a	47.159218
39	0x40ab85c7	5.3600802
40	0x4213d02b	36.95329
41	0x42111e3b	36.279522
42	0x41af5b73	21.919653
43	0x41c0d7b6	24.105328
44	0x4255d02d	53.453297
45	0x41d7e25d	26.985529
46	0x4295a423	74.82058
47	0x40df56e1	6.9793553
48	0x428bae63	69.8406
49	0x4132dc47	11.178779
50	0x418a8c51	17.318514
51	0x4106d125	8.426061
52	0x41a6cd4e	20.850246
53	0x423a4e40	46.576416
54	0x3fdfe375	1.7491289
55	0x4158fc4d	13.561597
56	0x429d3458	78.602234
57	0x41b2ada5	22.334787
58	0x43019836	129.59457
59	0x41fd73a2	31.681461
60	0x41c56a8c	24.677025
61	0x41fcee58	31.616379
62	0x41d8e784	27.113045
63	0x3faadd5e	1.3348806

layer2.3.weight f4 [32, 64, 1, 3, 3]
0	0xbe650602	-0.22365573
1	0xbd9e52ee	-0.07730661
2	0x3c61c5d8	0.01378008
3	0xbe068622	-0.13137105
4	0xbc8cb8c1	-0.017177941
5	0x3d57a378	0.05264613
6	0xbe33233b	-0.17493908
7	0xbda047db	-0.07826205
8	0xbd3a9ddf	-0.045560714
9	0xbe1e444a	-0.15455738
10	0xbe2e88dc	-0.17044395
11	0xbe0e19e9	-0.13877071
12	0xbe4b3846	-0.19845685
13	0xbe11f7f8	-0.14254749
14	0xbe05eeb5	-0.13079341
15	0xbda56ded	-0.08077607
16	0xbd496bfa	-0.04917524
17	0x3cd391ef	0.025826422
18	0xbe36e563	-0.17860942
19	0x3d8bb6f0	0.06822002
20	0xbd9ba8e3	-0.07600572
21	0xbe67aec2	-0.22625259
22	0x3dc9399b	0.098254405
23	0xbe048e15	-0.12944825
24	0xbe6ca766	-0.23110732
25	0xbc4277c2	-0.011869373
26	0xbe9648e7	-0.29352495
27	0xbdb3aa18	-0.08772677
28	0x3e223e8f	0.15844177
29	0x3e1f8a91	0.15580203
30	0xbdc5c457	-0.096565895
31	0x3e1dbdd4	0.15404445
32	0x3e5ba9d6	0.21451506
33	0xbc6cef29	-0.014461317
34	0x3e3185d5	0.17336209
35	0x3e810d5c	0.25205505
36	0xbe955d67	-0.29172823
37	0xbeb01b0f	-0.34395644
38	0xbebc6f86	-0.36803836
39	0xbeee4968	-0.4654038
40	0xbe9eb1d4	-0.30995047
41	0xbe805a13	-0.2506872
42	0xbf000553	-0.50008124
43	0xbe9161da	-0.28394967
44	0xbe8aade6	-0.270858
45	0xbdc0f899	-0.09422416
46	0xbbba1465	-0.0056787007
47	0x3d0f973d	0.03505634
48	0xbc574cad	-0.0131408395
49	0x3dbf30a6	0.09335451
50	0x3d86cce4	0.065820485
51	0x3c633f6d	0.013870102
52	0x3ccc1a23	0.024914807
53	0xba98cc28	-0.0011657523
54	0x3eddc4b0	0.43314123
55	0x3e78d7ea	0.24301115
56	0x3ec95896	0.39325398
57	0x3e8122e4	0.25221932
58	0xbcc8622d	-0.024460876
59	0x3e3815c5	0.17977054
60	0x3ebb082b	0.3652967
61	0x3e2fb76c	0.17159814
62	0x3ee0c534	0.43900454
63	0x3b02c6ca	0.0019954913
64	0x3b4838e6	0.0030551492
65	0x3c8614d7	0.01636736
66	0x3d948efc	0.072538346
67	0x3cbefe8b	0.023314735
68	0x3d840bdf	0.06447577
69	0x3d4cff95	0.05004843
70	0x3d9c2c5e	0.0762565
71	0x3c86cc4b	0.016454836
72	0xbd360fa2	-0.044448502
73	0xbba5fcda	-0.0050655426
74	0x3d57c98a	0.052682437
75	0xbc8383a7	-0.016053988
76	0x3cb68609	0.02228071
77	0x3d8ed5b2	0.06974353
78	0x3d87e2bd	0.06635044
79	0x3d2f8e7b	0.04286049
80	0x3d02fb97	0.031978216
81	0x3d5397f5	0.05165859
82	0xbd4cbb33	-0.049983215
83	0x3c98b432	0.018640611
84	0xbe43a156	-0.19104514
85	0xbe80e90c	-0.251778
86	0xbdce7560	-0.10080981
87	0xbe2dcb11	-0.16971995
88	0xbe90f56f	-0.2831225
89	0xbe0e3bce	-0.13890001
90	0x3d303350	0.043017685
91	0x3e2a2be1	0.16618301
92	0x3ddc758f	0.1076461
93	0x3da892d0	0.08231127
94	0x3da6d829	0.08146698
95	0x3e2b175f	0.16708134
96	0x3cd38ead	0.025824869
97	0x3da45a3a	0.08025022
98	0x3d9e57c0	0.07731581
99	0x3e29b4e8	0.16572917
100	0x3df80074	0.121094614
101	0x3c6b21a8	0.014351286
102	0x3adc4003	0.0016803745
103	0x3d3b14d4	0.04567416
104	0xbd3b55ba	-0.045736052
105	0xbdb88f97	-0.090117626
106	0xbd9db9ee	-0.07701479
107	0xbe6cf441	-0.2314005
108	0x3f38edd3	0.7223789
109	0x3ec265b0	0.37968206
110	0x3ea4c5f7	0.32182285
111	0x3efe18d5	0.4962832
112	0x3e6cbe6a	0.23119512
113	0x3ea7b364	0.32754052
114	0x3ec37fd5	0.38183466
115	0x3e0d3050	0.13787961
116	0x3e81d646	0.2535879
117	0x3d7f9420	0.062397122
118	0x3d4a88a8	0.04944673
119	0xbe66057e	-0.22463033
120	0x3e60886a	0.21927038
121	0x3ddaa3c8	0.1067577
122	0xbd95d114	-0.07315269
123	0x3e7a56b2	0.24447134
124	0x3dedb5e1	0.11606956
125	0xbd0fdbff	-0.035121914
126	0x3e3dec85	0.18547256
127	0x3e234dd0	0.15947652
128	0x3e810c6f	0.252048
129	0x3dfcce84	0.12344077
130	0x3d64c6ac	0.05585353
131	0x3e0a3da5	0.13500078
132	0x3dce44e3	0.10071733
133	0x3de0cf0e	0.109769925
134	0x3df2e54b	0.118601404
135	0xbcd65c88	-0.02616717
136	0x3d17ed95	0.03709181
137	0x3d8dccda	0.06923838
138	0x3df5ea65	0.12007598
139	0x3c840228	0.01611431
140	0x3d4459df	0.04793727
141	0x3dc75d6d	0.097346164
142	0xbd074369	-0.03302327
143	0x3b8b9dcb	0.0042607537
144	0x3b88fdc6	0.004180643
145	0x3c4e8928	0.012605943
146	0xbd39eeab	-0.045393627
147	0x3cb538b5	0.022121767
148	0xbbdd8664	-0.0067604054
149	0x3ca57457	0.020197077
150	0x3d47fc9e	0.0488249
151	0xbbcb43d8	-0.006203156
152	0x3ad472d3	0.0016208537
153	0x3cc4157e	0.02393603
154	0xbcf7e786	-0.030261766
155	0xbd8e2f4d	-0.06942616
156	0x3d9d9bcc	0.076957315
157	0x3ca64768	0.020297721
158	0xbcb70024	-0.022338934
159	0x3e71e744	0.23623377
160	0x3e0fe9cf	0.14054035
161	0x3cda3972	0.02663872
162	0xbbae5d9e	-0.0053212186
163	0x3d7d8f69	0.061904345
164	0xbbfd2af1	-0.0077260663
165	0x3db545ba	0.0885119
166	0x3da2a6d2	0.07941975
167	0x3ce06447	0.027391566
168	0x3e1e7342	0.15473655
169	0x3e28e1de	0.16492411
170	0x3da2abd8	0.07942933
171	0x3eae3d88	0.3403132
172	0x3e82e9c3	0.2556897
173	0x3e8a43c8	0.27004838
174	0x3e4e6f0a	0.20159546
175	0x3e132893	0.14370947
176	0x3e27acc7	0.16374503
177	0x3ebfe92e	0.3748259
178	0x3e8dd6b9	0.27702883
179	0x3e4591d5	0.19293912
180	0x3d93eacf	0.072225206
181	0x3cf6cacf	0.030126004
182	0x3c7d6e44	0.015468184
183	0x3cb4eed2	0.022086535
184	0x3cb22d60	0.021750152
185	0xbbda9e9b	-0.0066717393
186	0xbb911871	-0.0044279625
187	0x3c52aa0d	0.012857926
188	0xbc760433	-0.01501565
189	0xbe2ebe72	-0.17064837
190	0xbe01d677	-0.12679468
191	0xbe38a7e7	-0.180328
192	0xbdd0b169	-0.10190088
193	0xbe75ee2c	-0.24016637
194	0xbe79dacb	-0.24399869
195	0x3cbb1bb0	0.02284035
196	0xbe3c6496	-0.18397745
197	0xbe92846a	-0.2861665
198	0x3ddc5ba8	0.107596695
199	0x3e62f446	0.22163495
200	0x3e51fb92	0.20506123
201	0x3da24d53	0.07924905
202	0x3dc19834	0.094528586
203	0x3e1c7922	0.15280584
204	0x3c9f4c31	0.01944551
205	0x3d906510	0.07050526
206	0x3cbec93e	0.02328932
207	0xbc76075c	-0.015016403
208	0x3da4e7b7	0.080520086
209	0xbbb1c936	-0.0054255975
210	0xbd94c26c	-0.072636455
211	0x3c645ff7	0.013938895
212	0xbbabfbed	-0.0052485378
213	0x3d01d642	0.031698473
214	0x3e030bc0	0.12797451
215	0x3d7e87a0	0.06214106
216	0xbd837b71	-0.06420029
217	0xbd8ee668	-0.0697754
218	0xbd85c742	-0.06532146
219	0xbe20fa13	-0.15720396
220	0xbdf5a217	-0.11993807
221	0xbe5cc944	-0.21561152
222	0xbe83e3da	-0.25759774
223	0xbea1985d	-0.31561556
224	0xbeabd59a	-0.33561403
225	0xbe13823e	-0.14405152
226	0xbdef7ec4	-0.116941005
227	0xbe874ad5	-0.2642428
228	0x3daca763	0.08430364
229	0xbcc61a90	-0.024182588
230	0xbe6d5bd1	-0.23179556
231	0xbc2136d8	-0.009839736
232	0xbe384180	-0.17993736
233	0xbeb8e6eb	-0.36113676
234	0xbebb8d5d	-0.3663129
235	0xbe9c2eb6	-0.30504388
236	0xbe6f0d1c	-0.23344845
237	0xbea7324c	-0.3265556
238	0xbe96445d	-0.29349032
239	0xbe15db2d	-0.1463439
240	0xbe55aa39	-0.20865716
241	0xbe205b81	-0.15659906
242	0xbdca3ec4	-0.09875253
243	0xbdd86776	-0.105666086
244	0xbc67bd3f	-0.014144241
245	0xbc0a1561	-0.008427949
246	0xbdf4f1fa	-0.11960216
247	0xbdf3d893	-0.11906543
248	0xbd59ad55	-0.053143818
249	0xbe177196	-0.14789423
250	0xbddfff27	-0.10937338
251	0xbdfcf733	-0.12351837
252	0x3e968340	0.2939701
253	0x3e87bebc	0.26512706
254	0x3ea1b71c	0.31585014
255	0xbdd88252	-0.105717316

layer2.3.bias f4 [32]
0	0xbef6f8bc	-0.48236644
1	0x3e11261a	0.14174691
2	0xbe90d101	-0.28284457
3	0xbf07af7d	-0.5300215
4	0xbe900c2b	-0.28134283
5	0x3cb57e64	0.022154994
6	0xbed370f8	-0.41297126
7	0xbe4e09c8	-0.20120919
8	0xbe9baeeb	-0.3040689
9	0xbeb2c80c	-0.3491825
10	0x3e38484c	0.17996329
11	0xbebbbb20	-0.36666203
12	0xbdccbbba	-0.099967435
13	0x3cb4cf39	0.022071468
14	0xbf00f219	-0.5036941
15	0xbefa5ad2	-0.48897415
16	0xbe0eadb2	-0.13933447
17	0xbeb3e342	-0.3513432
18	0xbe9986ad	-0.29985562
19	0xbe7f2ef3	-0.24920253
20	0xbd99cb03	-0.075094245
21	0xbec2cfb3	-0.38049087
22	0xbd47e063	-0.048797976
23	0xbee1cbd8	-0.44100833
24	0xbd2e32d0	-0.042528927
25	0x3d68bb13	0.056819033
26	0xbf266a1f	-0.6500568
27	0xbdcb96fb	-0.099409066
28	0xbe05c518	-0.13063467
29	0x3e8c3f35	0.27391973
30	0xbf2e0cdc	-0.6798837
31	0xbe522a39	-0.20523919

layer2.5.weight f4 [32]
0	0x3f2fae2b	0.68625134
1	0x3ea4d775	0.3219563
2	0x3f28f314	0.6599591
3	0x3f6a3140	0.914814
4	0x3f89c2a9	1.076253
5	0x3f85c226	1.0449874
6	0x3f32448e	0.69635856
7	0x3f916dfb	1.1361688
8	0x3f43b057	0.7644095
9	0x3f922168	1.1416445
10	0x3f91f4de	1.1402853
11	0x3f31aa1b	0.69400185
12	0x3f36aa40	0.7135353
13	0x3f9894df	1.1920432
14	0x3f987839	1.1911689
15	0x3f828731	1.0197507
16	0x3f96c220	1.1777992
17	0x3fa49a8f	1.2859668
18	0x3faee835	1.3664614
19	0x3f27d64b	0.6556136
20	0x3f71657e	0.9429549
21	0x3f8fab24	1.1224103
22	0x3f865916	1.0495937
23	0x3f76d380	0.96416473
24	0x3f968cd0	1.1761723
25	0x3fa64289	1.2989055
26	0x3f0b58b4	0.54432225
27	0x3f5eb3e3	0.86993235
28	0x3f98477c	1.1896815
29	0x3f60d7ed	0.87829477
30	0x3f6d9a47	0.92813534
31	0x3f1c0ad5	0.6095403

layer2.5.bias f4 [32]
0	0x3cc815ca	0.024424452
1	0xbf0044f1	-0.50105196
2	0xbbe52777	-0.00699323
3	0x3e2d1f6b	0.16906516
4	0x3dd24e81	0.1026888
5	0x3e33fdad	0.17577238
6	0xbd4c607b	-0.0498967
7	0xbc208eec	-0.0097997
8	0xbee2012f	-0.44141528
9	0x3e8869e0	0.26643276
10	0x3e0424bd	0.1290464
11	0x3e5c564d	0.21517296
12	0x3eb92f1b	0.3616875
13	0x3e871b90	0.26388216
14	0x3f066d4b	0.5251052
15	0x3dd78063	0.10522535
16	0x3d58f82b	0.052971046
17	0x3ef12da6	0.4710514
18	0x3f3d4782	0.7393724
19	0x3e9b7f46	0.3037054
20	0x3f2203ff	0.6328735
21	0x3e27f570	0.1640222
22	0x3e7c63ed	0.24647494
23	0x3e340a10	0.17581964
24	0x3ee77d75	0.45212904
25	0xbdfb0f5a	-0.122587875
26	0xbdb32160	-0.087466
27	0x3e56727b	0.20942108
28	0x3e05d9b1	0.13071324
29	0x3eb67bd5	0.3564135
30	0xbd6845ee	-0.056707315
31	0x3e9a48d4	0.30133688

layer2.5.running_mean f4 [32]
0	0x3e9ef4b1	0.3104606
1	0x3f80833a	1.0040047
2	0x3fc820c9	1.5635005
3	0x400b795a	2.1792817
4	0x3fe4fbd0	1.7889347
5	0x3f8eeb37	1.1165532
6	0x3f3b0fbe	0.73070896
7	0x3ec7ad67	0.38999483
8	0x3f5d75e6	0.86508024
9	0xbd018d93	-0.031629156
10	0x404c92bc	3.196456
11	0x401a14df	2.4075239
12	0x3ed45e44	0.4147817
13	0x3fad3872	1.3532851
14	0x3e1b5ac3	0.15171342
15	0x3f7459fc	0.95449805
16	0x40090c61	2.1413805
17	0x3fa02910	1.2512531
18	0x402f69c7	2.7408311
19	0x400f4c92	2.2390485
20	0x4034678d	2.8188202
21	0xbc3f86c2	-0.011689844
22	0x4096780f	4.7021556
23	0x3faf561a	1.3698151
24	0x3f82d308	1.0220652
25	0x40acceb4	5.4002323
26	0x3f329e7d	0.69773084
27	0x3fc4f978	1.5388632
28	0x4010bb1f	2.261421
29	0x40a628b3	5.192468
30	0x3f8536e6	1.0407379
31	0x3fa3d4ce	1.2799318

layer2.5.running_var f4 [32]
0	0x40896bb7	4.294399
1	0x409ac3aa	4.836385
2	0x418936bb	17.151724
3	0x41f626fd	30.769037
4	0x41d07233	26.055761
5	0x40a324d9	5.098248
6	0x412d6adf	10.838592
7	0x403909ba	2.8912187
8	0x41783b0c	15.514416
9	0x3f574b69	0.8409944
10	0x418141c7	16.157118
11	0x41b05e59	22.046068
12	0x40e7ef14	7.2479343
13	0x41835c11	16.419954
14	0x403363d0	2.802967
15	0x4180b30a	16.087421
16	0x41965df3	18.795874
17	0x41a555d4	20.666908
18	0x42416cc1	48.356205
19	0x418f664f	17.924955
20	0x42528c5e	52.637077
21	0x403e323a	2.9718156
22	0x4210cb51	36.19855
23	0x42080f29	34.014805
24	0x416d1149	14.81672
25	0x421c7d71	39.1225
26	0x4122ac34	10.167042
27	0x415c5efe	13.773191
28	0x418fa863	17.95722
29	0x421b0487	38.75442
30	0x416ce7ec	14.806622
31	0x4132cc73	11.174914

layer2.6.weight f4 [64, 32, 3, 3, 3]
0	0x3da48362	0.08032872
1	0xbc12ca9a	-0.008959437
2	0x3e14febd	0.145503
3	0xbd5b4ea4	-0.053541794
4	0xbdc3b57e	-0.09556101
5	0x3ca8e926	0.020618986
6	0xbdab5205	-0.08365253
7	0xbe1f1536	-0.15535435
8	0xbd3c582f	-0.045982536
9	0x3b82c3bc	0.0039906185
10	0xbd9c8a3c	-0.076435536
11	0xbda7eb6a	-0.081991985
12	0xbd08eb39	-0.03342745
13	0xbde413fb	-0.111366235
14	0xbe00cec0	-0.12578869
15	0xbc17708d	-0.009243143
16	0xbdd4ff50	-0.104002595
17	0xbd8b416c	-0.067995876
18	0xbc9e3707	-0.019313348
19	0xbd8fd3f0	-0.07022846
20	0xbd23f0ce	-0.04002457
21	0x3c0eb8c3	0.008711043
22	0xbd12c96c	-0.035836622
23	0x3cc071e7	0.023491813
24	0xbdb717c1	-0.089400776
25	0xbd5fd261	-0.054643992
26	0x3c600753	0.013673621
27	0xbe3e366d	-0.1857545
28	0xbe3cd0e4	-0.1843906
29	0xbd6390d4	-0.05555804
30	0xbe040644	-0.12893015
31	0xbe075af5	-0.13218291
32	0xbc8946e2	-0.016757432
33	0xbdd6d323	-0.1048949
34	0xbe06727a	-0.13129607
35	0x3c44b328	0.012005605
36	0xbe2853cf	-0.1643822
37	0xbe263477	-0.16230951
38	0xbd9c7b37	-0.07640689
39	0xbe2227d0	-0.158355
40	0xbddbf001	-0.107391365
41	0xbd22dec1	-0.039763216
42	0xbdd21e35	-0.10259668
43	0xbe0065a4	-0.12538773
44	0x3c4a3bfe	0.012343405
45	0xbceed34b	-0.029153487
46	0x3d386255	0.04501565
47	0x3e484954	0.19559222
48	0xbd29523f	-0.0413382
49	0x3d208450	0.039188683
50	0x3e601df9	0.21886434
51	0xbd9d433f	-0.07678842
52	0x3c860cae	0.016363468
53	0x3e5a6fd5	0.21331723
54	0xbb303053	-0.0026884272
55	0xbd218e7a	-0.039442517
56	0x3d34cf73	0.04414315
57	0xbd3a9302	-0.045550354
58	0xbdea122a	-0.11429246
59	0x3cdae3f0	0.026720017
60	0xbdc01553	-0.09379067
61	0xbe043524	-0.12910897
62	0xbd56cf97	-0.052444067
63	0xbdaedbfc	-0.085380524
64	0xbd88a96f	-0.06672942
65	0xbd85a428	-0.06525451
66	0xbdc6a59b	-0.096995555
67	0xbdfb6bad	-0.12276397
68	0xbcf20dd8	-0.029547617
69	0xbdd10b53	-0.10207238
70	0xbde27b31	-0.11058653
71	0xbd6c4c37	-0.05768987
72	0xbec6f3d3	-0.38857898
73	0xbe9b4f95	-0.30334154
74	0xbe40a793	-0.18813924
75	0xbedd8a9b	-0.4326981
76	0xbe9e8c54	-0.30966437
77	0xbe487556	-0.1957601
78	0xbeb6dbb5	-0.35714498
79	0xbeaab2ae	-0.33339447
80	0xbe458d28	-0.19292128
81	0xbe08adbd	-0.13347526
82	0xbead1235	-0.33802953
83	0xbedbbcb5	-0.4291741
84	0xbd9f0604	-0.07764819
85	0xbe8bc224	-0.27296555
86	0xbedf2dbf	-0.4358959
87	0xbe18998b	-0.14902322
88	0xbea205e6	-0.31645125
89	0xbed9b2e0	-0.42519283
90	0x3d0adf2c	0.03390424
91	0xbd02c83d	-0.031929243
92	0xbd9d5bda	-0.07683535
93	0x3db55f21	0.08856035
94	0x3d1243a3	0.035709035
95	0xbca76f33	-0.020438766
96	0x3d6d2642	0.057897814
97	0xbc5576af	-0.013028785
98	0xbcf170ba	-0.029472698
99	0x3deecb06	0.116598174
100	0x3da51d35	0.080622114
101	0x3c94c44f	0.018160013
102	0x3e0901d0	0.13379598
103	0x3e213923	0.15744452
104	0x3e17bc72	0.1481798
105	0x3dfe9a29	0.124317475
106	0x3dd9d38e	0.10636054
107	0x3e2827b5	0.16421397
108	0x3d20ac5c	0.039226875
109	0x3d01cf4d	0.031691838
110	0x3c4c9d37	0.012488655
111	0x3db6b791	0.08921731
112	0x3db4fdac	0.088374466
113	0x3d9e0685	0.07716087
114	0x3db157da	0.086593345
115	0x3e12f92e	0.14352867
116	0x3e5cb9d0	0.21555257
117	0xbe160f4c	-0.14654273
118	0xbe1204da	-0.14259663
119	0xbe27b58c	-0.16377848
120	0xbd32f70b	-0.04369263
121	0xbe097e12	-0.13426998
122	0xbe0e23a5	-0.13880785
123	0xbd6c8db8	-0.05775234
124	0xbd8f8814	-0.07008377
125	0xbdec8d08	-0.11550337
126	0xbe61836f	-0.22022794
127	0xbeb115c5	-0.3458692
128	0xbecdde9d	-0.40208903
129	0xbe0f6203	-0.14002232
130	0xbe9266b5	-0.28593984
131	0xbeaf95e8	-0.34294057
132	0xbe4a335a	-0.19746152
133	0xbeadaf33	-0.3392273
134	0xbe96ad80	-0.29429245
135	0x3d2fa522	0.042882092
136	0xbc3e4aee	-0.011614544
137	0x3d9272bc	0.0715079
138	0x3d3069f1	0.043069784
139	0x3d5f61dc	0.054536685
140	0x3e348468	0.17628634
141	0x3e266328	0.16248763
142	0x3e3255f2	0.17415598
143	0x3ea824e7	0.32840654
144	0x3d219008	0.039444
145	0xbd8db158	-0.06918591
146	0xbd9943da	-0.07483645
147	0x3e0264b0	0.12733722
148	0x3d392c21	0.0452081
149	0x3c0136a7	0.007886565
150	0x3d2a6dc6	0.041608594
151	0x3c8e4f86	0.017371904
152	0xbbe0d272	-0.0068610245
153	0x3d9df339	0.07712407
154	0xbe11678c	-0.14199656
155	0xbe714e2b	-0.23564975
156	0x3e0df11e	0.1386151
157	0xba88a4ce	-0.0010425092
158	0xbe0beec4	-0.136653
159	0xbdc8e273	-0.09808817
160	0xbe43b6d2	-0.19112709
161	0xbe7b16d9	-0.24520434
162	0xbe0c9bd0	-0.13731313
163	0xbe27966b	-0.16365974
164	0xbe03a3d0	-0.12855458
165	0xbe142062	-0.14465478
166	0xbdedf72a	-0.116194084
167	0xbdcb97a2	-0.09941031
168	0xbdd48eae	-0.103787765
169	0xbe1bcf9e	-0.15215918
170	0xbdc6c55a	-0.097056106
171	0xbe405919	-0.18783988
172	0xbe7d5469	-0.24739231
173	0xbe938669	-0.28813484
174	0xbe0e4c5b	-0.13896315
175	0xbe3e3543	-0.18575005
176	0xbe2f6fbe	-0.1713247
177	0xbe123a31	-0.14280011
178	0xbe267560	-0.16255713
179	0xbde0681f	-0.109573595
180	0x3d054fbc	0.032546744
181	0x3d652c44	0.055950418
182	0x3d986f57	0.074431114
183	0x3db86821	0.09004236
184	0x3e30d7e1	0.17269851
185	0x3e8aa00d	0.27075234
186	0x3de8828a	0.11353023
187	0x3e8206b0	0.25395727
188	0x3e9a94f5	0.3019177
189	0xbe455049	-0.19268908
190	0xbe148579	-0.14504041
191	0x3d0ac077	0.033874955
192	0xbd3ee4b6	-0.046604834
193	0xbe03b723	-0.1286283
194	0x3db963d8	0.09052247
195	0xbe6c667d	-0.23085971
196	0xbe27770f	-0.16354011
197	0x3cfda9c6	0.030964743
198	0xbe504242	-0.20337775
199	0xbddd86ff	-0.10816764
200	0xbd026443	-0.0318339
201	0xbdf347b6	-0.11878912
202	0xbd89f025	-0.06735257
203	0x3d240ce1	0.040051345
204	0xbe9dc2b1	-0.308126
205	0xbe5f6d81	-0.21819116
206	0xbd4fe555	-0.050755817
207	0x3b6b3308	0.0035888571
208	0x3de3982c	0.11113009
209	0x3eb433bf	0.3519573
210	0xbe1af0a4	-0.1513086
211	0x3d762340	0.06009221
212	0x3e84b8a4	0.2592212
213	0xbd039cf9	-0.032132123
214	0x3e4ab76d	0.19796534
215	0x3ec38942	0.38190657
216	0xbdb5c5b5	-0.088756
217	0xbe10bfab	-0.14135616
218	0x3c35bdcc	0.011092614
219	0xbe0c6a54	-0.13712436
220	0xbda73f65	-0.081663884
221	0x3cd13674	0.02553866
222	0xbe266327	-0.16248761
223	0xbd9e9b9e	-0.077445254
224	0x3c8594d4	0.016306318
225	0xbe20b934	-0.1569565
226	0xbe2aaca9	-0.16667427
227	0xbdc4cdd9	-0.09609575
228	0xbdcaf5f1	-0.09910191
229	0xbe0224f0	-0.12709403
230	0xbd925fd8	-0.07147187
231	0xbe258491	-0.16163851
232	0xbdf83e30	-0.12121236
233	0xbd249da7	-0.04018941
234	0xbe9534b5	-0.29141775
235	0xbe890f2d	-0.2676939
236	0xbe357273	-0.1771944
237	0xbe882fbc	-0.26598918
238	0xbe4b12b7	-0.19831358
239	0xbdea1535	-0.11429826
240	0xbe54f303	-0.20795827
241	0xbe50d60e	-0.20394155
242	0xbdf01886	-0.117234275
243	0xbc9771b1	-0.01848683
244	0xbdb68d64	-0.08913687
245	0x3d185116	0.037186705
246	0xbd4e1c3b	-0.05031989
247	0xbe3193d6	-0.17341551
248	0xbdeb8012	-0.11499037
249	0xbd7976bb	-0.060904246
250	0xbdfe23a5	-0.124091424
251	0xbe060c81	-0.13090707
252	0xbdf4df76	-0.11956684
253	0xbdf311d0	-0.11868632
254	0xbdfcb20b	-0.123386465
255	0xbdb5d0f6	-0.08877747

layer2.6.bias f4 [64]
0	0x3e10151e	0.14070556
1	0xbeaeea15	-0.34162965
2	0xbd9aabea	-0.07552321
3	0xbd6c989c	-0.057762727
4	0x3c368e42	0.011142315
5	0xbe3c6640	-0.1839838
6	0xbe6b39f9	-0.22971334
7	0x3c95772f	0.018245308
8	0xbd887e69	-0.06664736
9	0xbdfba274	-0.12286845
10	0xbe62e396	-0.2215713
11	0xbe97a69f	-0.2961931
12	0xbe936f87	-0.28796026
13	0xbe59caee	-0.21268818
14	0xbeaa17a6	-0.33221167
15	0xbdc8231b	-0.09772321
16	0x3ceb78ff	0.028744219
17	0xbe087904	-0.13327414
18	0xbe87bfe1	-0.2651358
19	0xbd420c1e	-0.047374837
20	0xbeccf679	-0.40031794
21	0xbe3ca3fa	-0.18421927
22	0xbedea318	-0.43483806
23	0x3e1e1018	0.15435827
24	0xbd37b826	-0.044853352
25	0xbf0b9e2d	-0.5453823
26	0x3d877e7d	0.066159226
27	0xbd9e43d3	-0.0772778
28	0xbe4f56cf	-0.20247959
29	0xbe3b2937	-0.18277441
30	0xbe8e1b27	-0.2775509
31	0xbf1554d2	-0.5833255
32	0x3e9f9ef6	0.31175965
33	0x3e91839b	0.2842072
34	0xbe4bd9f5	-0.19907363
35	0xbd773349	-0.060351644
36	0xbe80931c	-0.25112236
37	0xbebb958a	-0.36637527
38	0xbe235561	-0.15950538
39	0x3eb0b7b8	0.34515166
40	0xbcf9c21b	-0.030488065
41	0xbec27e49	-0.37986973
42	0xbd134ed5	-0.035963852
43	0xbe77c35a	-0.24195614
44	0x3d8591b8	0.06521934
45	0xbe091a0e	-0.13388845
46	0xbd414263	-0.047182452
47	0x3decefd3	0.1156918
48	0xbe9a97fe	-0.30194086
49	0x3d414efd	0.04719447
50	0xbec8eb46	-0.39242
51	0xbeaa8bd5	-0.33309808
52	0xbc881c0a	-0.016614933
53	0x3cd57fde	0.026061948
54	0xbb044c3a	-0.0020187036
55	0x3dbc9084	0.09207252
56	0xbe7f3af2	-0.2492483
57	0x3c47f95b	0.012205447
58	0xbe3766f7	-0.17910372
59	0x3eb26ba3	0.34847745
60	0x3ddcc4c4	0.107797176
61	0x3e276781	0.16348077
62	0xbd137b7d	-0.03600644
63	0xbe89ceeb	-0.26915678

layer2.8.weight f4 [64]
0	0x3f8301b0	1.023489
1	0x3f35198d	0.7074211
2	0x3f34946b	0.7053897
3	0x3f899a0e	1.0750139
4	0x3f82de05	1.0224005
5	0x3f4b5ac2	0.7943536
6	0x3f3c4365	0.73540336
7	0x3f5a346a	0.8523623
8	0x3f82a422	1.0206339
9	0x3fa38b83	1.2776951
10	0x3f0db705	0.5535739
11	0x3fbc3c9d	1.4705998
12	0x3f795dbd	0.9740866
13	0x3f3e7226	0.74392927
14	0x3f81bb8f	1.0135363
15	0x3f1b109c	0.6057222
16	0x3f8dc5e1	1.1076013
17	0x3f59cb17	0.85075516
18	0x3f1a4aad	0.60270196
19	0x3f41c09c	0.75684524
20	0x3faa3778	1.3298178
21	0x3f82ceec	1.0219398
22	0x3f77d0ed	0.9680317
23	0x3f56bed3	0.83884925
24	0x3fac3f4d	1.3456818
25	0x3f977bb3	1.1834625
26	0x3f1d88b8	0.6153674
27	0x3f43d161	0.7649136
28	0x3f8c328e	1.0952928
29	0x3f8da44a	1.1065762
30	0x3f740a16	0.9532789
31	0x3fadffaf	1.3593653
32	0x3f3da750	0.74083424
33	0x3f1f9a5e	0.6234492
34	0x3f46ecac	0.7770488
35	0x3f4bc3d4	0.79595685
36	0x3f32d332	0.6985351
37	0x3f312fdb	0.69213647
38	0x3f50e0cc	0.8159301
39	0x3f61c396	0.88189065
40	0x3f66a15f	0.9008998
41	0x3f84d356	1.0376995
42	0x3f6d894b	0.9278762
43	0x3f590ca7	0.8478493
44	0x3f6f30e9	0.93434006
45	0x3f7cc997	0.987451
46	0x3f896813	1.0734886
47	0x3f20e81f	0.6285419
48	0x3f978524	1.1837506
49	0x3ebacce1	0.36484435
50	0x3f970eee	1.1801431
51	0x3f3fda7d	0.7494276
52	0x3f6db06b	0.9284732
53	0x3f3be274	0.73392415
54	0x3f3d94c4	0.74055123
55	0x3f729cc3	0.9477045
56	0x3f3da24a	0.7407576
57	0x3f8684f9	1.050933
58	0x3f4a2abc	0.7897146
59	0x3f549429	0.83038574
60	0x3f244729	0.6417108
61	0x3f03b1df	0.51443285
62	0x3f0fe188	0.5620351
63	0x3f5928a7	0.84827656

layer2.8.bias f4 [64]
0	0xbec69f19	-0.38793257
1	0xbe62248b	-0.22084253
2	0x3ed33a62	0.4125548
3	0x3e5c5899	0.21518172
4	0x3e4c6e84	0.19964033
5	0xbe15259b	-0.14565127
6	0xbf5c4308	-0.8603978
7	0x3ea402f4	0.32033503
8	0x3ea6089b	0.3242844
9	0xbbb0c334	-0.005394364
10	0xbe7fa7b1	-0.24966313
11	0x3eee217d	0.46509925
12	0xbed4fd04	-0.41599286
13	0x3f1c53b9	0.6106525
14	0x3ddf000b	0.1088868
15	0x3ead3bc9	0.33834675
16	0xbd6809e0	-0.056650043
17	0x3e793f9a	0.24340668
18	0xbf2cf249	-0.675572
19	0x3f2f875b	0.6856591
20	0xbbd3257d	-0.006443678
21	0xbefce78a	-0.493954
22	0xbf1737d2	-0.5906955
23	0x3f233bc2	0.6376306
24	0xbf10aef4	-0.5651696
25	0xbeef32bb	-0.46718392
26	0x3eb20909	0.34772518
27	0x3e8fad38	0.28061843
28	0x3ea0f6f7	0.3143842
29	0xbe39bf39	-0.18139352
30	0xbf01e4a4	-0.507395
31	0x3e2d46ea	0.16921583
32	0x3e8670ac	0.26257837
33	0x3f209734	0.6273072
34	0x3e75acf9	0.23991765
35	0xbdbb3004	-0.09140018
36	0xbf5b02ab	-0.85550946
37	0xbf586ecc	-0.8454406
38	0x3ece2293	0.40260753
39	0xbf0e131f	-0.55497926
40	0xbd9a5f05	-0.07537655
41	0x3f04c661	0.518652
42	0x3e8ad099	0.27112272
43	0x3e33612a	0.17517534
44	0x3f03a712	0.51426804
45	0x3e45ee20	0.19329119
46	0xbe0c39cf	-0.13693927
47	0x3db93373	0.09043016
48	0xbddf2e44	-0.10897496
49	0xbde3aab8	-0.111165464
50	0x3c6908f2	0.014223324
51	0xbe74ad70	-0.23894286
52	0x3e495dcf	0.19664691
53	0x3f20d5cf	0.62826246
54	0xbec42667	-0.3831055
55	0x3ea12a4c	0.31477582
56	0xbf0e4114	-0.5556805
57	0xbebbd598	-0.36686397
58	0x3e22f55e	0.15913913
59	0x3f6fc25d	0.9365595
60	0xbf149aaf	-0.5804853
61	0xbf13deeb	-0.5776202
62	0xbe535917	-0.20639454
63	0x3e99bcef	0.30026957

layer2.8.running_mean f4 [64]
0	0x3ff92178	1.9463339
1	0x40306c07	2.7565935
2	0x3e449fcf	0.19201587
3	0x3fa619fa	1.2976677
4	0x400cd7aa	2.200663
5	0x3f7f5c3d	0.9975012
6	0x405699a0	3.3531265
7	0x3fa28a27	1.2698411
8	0x3f0dab29	0.55339295
9	0x3f7c85eb	0.9864184
10	0x3ef61995	0.48066393
11	0x3fd4f4c8	1.6637201
12	0x3ea36096	0.31909627
13	0x4056acfb	3.354308
14	0x3f86cd18	1.053134
15	0x3f64ac02	0.89324963
16	0x3f91723b	1.1362985
17	0x3e31796d	0.17331477
18	0x3cc50037	0.024047954
19	0x3fecc354	1.849711
20	0x3ebc2d42	0.3675328
21	0x3db5eacb	0.08882674
22	0x3e7b5d3b	0.24547283
23	0x40a139af	5.0382915
24	0x3f80feae	1.0077722
25	0xbe502a6a	-0.2032868
26	0x40283d18	2.6287289
27	0x40bac9aa	5.837117
28	0x3e80e144	0.25171864
29	0x3f136ca8	0.5758767
30	0x3ed8e000	0.42358398
31	0x3ebb0e49	0.36534336
32	0x4108183f	8.505919
33	0x3f7994bd	0.9749258
34	0x3bc4d825	0.0060072117
35	0x3ee5a56d	0.44852772
36	0x3f510c80	0.816597
37	0x3e04d160	0.12970495
38	0x3f1153e3	0.56768626
39	0x40960fc5	4.689425
40	0x3fa562fe	1.2920835
41	0x3e217641	0.15767767
42	0x3fce45a9	1.6115009
43	0x3f04226d	0.5161503
44	0x405e2e66	3.471582
45	0x3e8f265b	0.2795895
46	0x3f97acbe	1.1849592
47	0x40101b0b	2.2516506
48	0xb9864221	-0.00025607742
49	0x3f9720c9	1.180688
50	0x3eaba2ef	0.33522746
51	0x3d0acb46	0.033885263
52	0x3f01ac2a	0.50653327
53	0x409d781b	4.9209113
54	0x3cfaf652	0.030635033
55	0x4074fed3	3.8280532
56	0x3e578311	0.21046092
57	0x3e9ed114	0.3101889
58	0x3e6021bb	0.21887867
59	0x40b3da5c	5.620405
60	0x3eca62a1	0.39528373
61	0x3f3c0e48	0.7345929
62	0x3f212a56	0.62955225
63	0x3d8ecad5	0.06972281
